model_weights.pth (torch, 346510 bytes, 27 tensors)

head.weight f4 [64, 1, 5]
00000000: 4be3 e93b 7316 7f3e 1b65 b8be 6058 a5be
00000010: d526 29be 566b e73d 26f4 81bc 19a4 b13e
00000020: a9c6 3bbd 2eee ea3d 772b 0dbe 8174 babd
00000030: 750b ddbe 4bad 98be 5f65 3dbe 489b a53c
00000040: 7010 373e 1348 893e 9ab0 9cbe 5c0a 4dbe
00000050: 7535 1c3e b2d1 ba3e bbea bdbd e756 aa3e
00000060: 62f4 9bbd 8fbd 633d a012 d23e cf5e d3be
00000070: b33a 8ebe 8bc0 e0bd 3a8b 2dbe 5d4f c83e
00000080: 9ea9 91be 404a 4ebe ce32 9ebe b4a1 d9be
00000090: 0f64 87be 642e c53e 08d7 4e3e 2621 613e
000000a0: 0bda 133d 0b69 60be deaf aa3d 4dbe d0be
000000b0: 9732 a0be ee18 69be 56c1 923e e050 893e
000000c0: 6905 44be 88b6 31bc 7eaf 933e fdbc e43e
000000d0: 4786 373e 8949 7a3d 0f06 9b3e 1406 8bbe
000000e0: fb79 9c3d a8ab b4be f824 a2be e2a4 73be
000000f0: f2c3 4f3e d17f 383e 368b 87be 6f50 093e
00000100: bb7f 7a3e ebcf 89bd d979 f43b d561 c53d
00000110: ca22 8c3e 7ef4 d93e 72a1 b9be 92eb 39be
00000120: 93ba 233e a3ed b63e a07c c13e 7d99 ce3e
00000130: 6998 c43d 8673 c5be 57ec 273d 88cd 8ebe
00000140: a6fd d5be a974 cd3e 603e b23e 3e6e e3be
00000150: cd35 a23d 1596 9cbd d836 96bd d5b6 4ebe
00000160: b6b2 333e df36 86be 6035 243e 026e 633e
00000170: 4728 a13e 6b03 233e a596 e7be d703 8ebe
00000180: 497b 6f3e 29b9 d43d 8df8 acbe f048 7cbe
00000190: 319a dc3e 87ce 9c3e cda1 46be 302c ecbd
000001a0: 70e7 dcbe d0a2 7f3b 9f9d a6be 918f aabe
000001b0: 66eb 37bc 0fcd a83d 51af 43be 65ec 843e
000001c0: 9e82 8cbe a930 ce3e ae65 9a3e 9813 bfbe
000001d0: 72a7 dabd 7a45 dd3c 47f8 973d 4c3f ef3d
000001e0: 6c1c 403e d45d 193d 096a 56be 08c7 603e
000001f0: 5f0b d8be c92c 83be b8a3 cfbd 75fb 53be
00000200: 3b13 17be e354 b7be 8378 c6bd b4a6 be3d
00000210: 4034 96be eaa0 aebc edcf a53e 9243 50bd
00000220: 1c3e df3b b1db 36bd 6684 b63d 7be1 923e
00000230: 712d d83e e652 903e 8a69 d73e f41c 14bd
00000240: c2ee cebe eba8 4dbe 3aac a13e 5dc6 033c
00000250: 8a7d 5cbe 4cf5 abbe 2dd3 d8be ee4d c3be
00000260: 868f bebd e143 793e 5df3 743e 3f7f d5be
00000270: 764c 943e beb6 aebe 12f2 b4bd ff53 32be
00000280: b5a8 afbd c3cb b4bd 9c20 cebe 1580 c5be
00000290: 058f 8cbd ff64 9f3c d137 43be cd46 383e
000002a0: 85f1 c7be 63dd 83bc b9b7 c63e c890 3fbe
000002b0: 0f0f cc3e 1707 213e 63fa cebe cd2e 943e
000002c0: 487a 4cbd 37c8 4fbe 52af b43e 1846 bcbe
000002d0: eac1 4e3d 606d bfbd a166 a33e 1b70 f93d
000002e0: ff05 563e c884 223e a4bb dcbd 84b9 c6bd
000002f0: 1b44 bebe f9aa 753e 5b7d bb3e 5ffe a13e
00000300: af8d 9cbe aeb3 dd3c a6d3 9dbe dbc4 7bbe
00000310: f6e6 83be 40b6 223e c005 85be b958 73bb
00000320: bd7f ad3c aac7 943e a831 adbe 58e8 9dbe
00000330: 6ad7 85be f669 9a3e 5673 2fbe 88ad bb3e
00000340: 3d28 193e 4de7 303d 1581 05bb b913 b3bd
00000350: 69bb 693d 161b d2bd e0c0 9fbb 8489 803d
00000360: d122 b0be 5ab0 6abe c405 bb3e a146 b9be
00000370: 14df 14bd 87a1 df3e c3c8 1d3e d411 393b
00000380: 5b3c ccbe 7cbd 613e b8d1 a3be baa0 05be
00000390: 9c38 1dbe 5423 8bbd f311 db3b 3281 bd3e
000003a0: 2daa 6c3d 393e cf3e 32c4 8e3e 20e2 89be
000003b0: 7f28 593e bd46 9cbe 9321 38be 283e 133e
000003c0: cbac 1e3e 5a06 af3e 1892 0ebe 90a9 b13b
000003d0: a5ad 6e3e 3778 d7be 8e10 ab3e 97ae b6be
000003e0: 68bb aa3c 3f46 75bd 640f 72be 816a 773d
000003f0: c54c bf3e 90cf 03be 134f 89be 6d7c 1fbe
0.007137691 0.24910907 -0.36014637 -0.32293987 -0.1651872 0.112997696 -0.01586349 0.3469551
-0.045843754 0.114712104 -0.13786112 -0.091042526 -0.43172804 -0.29819712 -0.18495701 0.020215645
0.17877364 0.268128 -0.30603486 -0.20023483 0.15254767 0.3648811 -0.09273287 0.33269426
-0.07614972 0.0556007 0.41029835 -0.4128327 -0.2777916 -0.10974225 -0.16947642 0.3912305
-0.2844972 -0.20145512 -0.30898136 -0.42506182 -0.26443526 0.38511956 0.20199215 0.21985301
0.036096614 -0.2191507 0.08334325 -0.40770188 -0.31288597 -0.22763416 0.2866313 0.26819515
-0.19142689 -0.0108467415 0.28844827 0.44675437 0.17922316 0.061105285 0.3027806 -0.27153075
0.076404534 -0.35287213 -0.3166883 -0.23793367 0.20289591 0.18017508 -0.26473397 0.13409589
0.24462788 -0.0672911 0.0074608144 0.096378006 0.27370292 0.42569345 -0.36255985 -0.18156269
0.15989141 0.35728177 0.37790394 0.40351477 0.095993824 -0.385647 0.040996876 -0.27891183
-0.4179508 0.40128067 0.34813213 -0.44420046 0.07920418 -0.076458134 -0.07334679 -0.20186932
0.17548642 -0.26213738 0.16035986 0.22209933 0.31476042 0.15919273 -0.4523212 -0.27737305
0.23386873 0.10386879 -0.3378338 -0.24637198 0.4308639 0.30626318 -0.1939766 -0.115318656
-0.43145323 0.0039006956 -0.3254213 -0.33312657 -0.011225557 0.08242237 -0.19109847 0.25961605
-0.27443403 0.402715 0.301557 -0.37319636 -0.10676469 0.027010668 0.07420402 0.11681995
0.18760842 0.037442997 -0.20938887 0.21950924 -0.42196175 -0.25620106 -0.10138649 -0.20701392
-0.1475343 -0.3580695 -0.096909545 0.0930914 -0.2933674 -0.021316964 0.32385197 -0.05084569
0.006812824 -0.044643108 0.08911972 0.28687653 0.4222217 0.28188246 0.42072707 -0.036160424
-0.40416533 -0.20083968 0.3157671 0.008042899 -0.21532264 -0.33585584 -0.42348614 -0.38145393
-0.09304719 0.243423 0.2392096 -0.41698644 0.28964585 -0.34123796 -0.08835234 -0.17414854
-0.085771 -0.08827927 -0.40259254 -0.3857428 -0.06863216 0.019457338 -0.19064261 0.17995758
-0.39051452 -0.016096776 0.38812044 -0.18707573 0.3985524 0.15725361 -0.40425405 0.28941956
-0.049921304 -0.2029122 0.3529001 -0.36772227 0.0504779 -0.093470335 0.31914237 0.121795855
0.20900725 0.15870965 -0.10777977 -0.09703353 -0.37161335 0.23991002 0.36619076 0.31639382
-0.30576846 0.027063217 -0.30825537 -0.24586813 -0.25762147 0.15889835 -0.2598095 -0.003713174
0.021179074 0.29058582 -0.33826947 -0.30841327 -0.2614091 0.30158967 -0.17133841 0.3665583
0.14956756 0.043189336 -0.0020371128 -0.08743996 0.057063494 -0.102590725 -0.0048752874 0.06276229
-0.34401563 -0.22918835 0.36527836 -0.36186698 -0.036345556 0.43677923 0.15408616 0.0028239386
-0.39889798 0.22044939 -0.3199594 -0.13049594 -0.15353626 -0.06793848 0.0066854893 0.3701263
0.05777948 0.4047716 0.2788406 -0.26930332 0.21206854 -0.3052272 -0.17981558 0.1437918
0.15495603 0.34184533 -0.13922918 0.0054218248 0.23308428 -0.42083904 0.33411068 -0.35680076
0.020841315 -0.059881445 -0.23638684 0.060404304 0.37363258 -0.12872148 -0.2681814 -0.15574808

head.bias f4 [64]
00000000: c314 193d feb0 873d 018e b5be 3d67 613d
00000010: e1f3 a03e 5abd d43e 9852 833e d944 623d
00000020: 592d 673e 3818 60be 5d75 cebe 021a bfbe
00000030: c2b9 ec3e 7379 8a3e 3289 9dbe 9ee1 3a3e
00000040: 8ee3 ab3e 8225 e63e 82d8 d23e 45b5 ad3e
00000050: 6e98 debd c0ba 20be b0e7 bb3e 4601 823e
00000060: 0308 8fbe a2e6 d13e ff25 723e f78b 5d3e
00000070: 4012 a0be fe8e da3d 4732 16be 1308 ac3e
00000080: 7228 dbbd b88c 223e e945 893d 2769 603e
00000090: 0cd1 21be c7f8 5f3e cd99 95be f724 d03d
000000a0: 5ae8 96be 952f e3be 26a9 b7be 5d7b a93e
000000b0: 62b0 763e f4e7 df3e 3bb1 b43e ba1d dcbe
000000c0: 14bb 9bbe b047 73bd 1123 99be 04b9 a63e
000000d0: 30a2 b6be b11e 5bbe 9a87 e0be ee10 88be
000000e0: 9d90 c03e 34b9 c13e 95e7 af3e eb77 bb3e
000000f0: c60a da3e 0efe 0bbe 2c27 523e e866 cf3e
0.037373316 0.066255555 -0.35459903 0.055030096 0.31436065 0.41550714 0.25648952 0.05524144
0.22575893 -0.21884239 -0.40323916 -0.3732453 0.46235472 0.27045783 -0.30768734 0.18250129
0.33572048 0.4495049 0.41180807 0.3392736 -0.108689174 -0.1569624 0.367002 0.25391597
-0.279358 0.4099627 0.23647307 0.21635424 -0.31263924 0.10671805 -0.14667617 0.3359991
-0.10701074 0.15873992 0.067027874 0.21915112 -0.15802401 0.21872245 -0.29218903 0.101633005
-0.29474145 -0.4437224 -0.35871238 0.3310193 0.24090722 0.43731654 0.35291466 -0.4299143
-0.30416167 -0.05939454 -0.29909566 0.3256303 -0.35670614 -0.21398427 -0.43853456 -0.26575416
0.3761033 0.3783661 0.3435637 0.36614928 0.42586344 -0.13671133 0.20522755 0.405082

body.0.net.0.weight f4 [64, 64, 5]
00000000: 860a 823c a105 5a3d c72e d53c dd44 f43c
00000010: 2c9b a6bc b5f0 da3c f70f 083c 40c6 38bc
00000020: 0722 02bd 4b51 fcbc 5428 3abd 63a8 113d
00000030: 7ef9 193d 7836 12bc d055 06bd b38a f03c
00000040: cc24 cb3c 1832 11bc 8a82 22bd 140f 523d
00000050: e436 c03c e1da 2ebd 01b0 613d 34d8 3a3d
00000060: 8215 a1bc 282c ef3c 2a38 15bd f308 62bc
00000070: bba0 223d 599f 983a b61a 2cbd a653 afbc
00000080: d835 9abc 3934 38bc 6969 a03b 0eff 6d3d
00000090: d589 193c 14f8 c6bc a68b 5b3c 1963 f13c
000000a0: 6870 cc3c eacb 59bd 3580 5bbc 8ea3 2cbd
000000b0: bb9c c6bc 3d45 853c d69a 2bbd 65da c43c
000000c0: 2a9e 373d 7a47 433c 26f3 18bd e814 a6bc
000000d0: fe60 6c3c 13b9 2fbd 8362 e43c d583 5abd
000000e0: c3a9 64bd 1b9c 67bd 4489 64bc 6525 183d
000000f0: 7e40 49bd e87d 3f3d 59ed 9dbc 429e 863c
00000100: 47bc 473b d6d0 3fbd 1fb4 483d d636 0e3d
00000110: 883d 653d 594a ed3c ac1f 00bd fb94 573d
00000120: 2ff1 3a3c cb4d 063d fa01 34bd 45fc a9bc
00000130: 4349 79bd c903 02bd d583 ee3b dad9 3abd
00000140: 3d6a 203c 5654 be3c 6791 c13b a5b0 47bd
00000150: 1d35 2cbd 606c 87bc fe2a ba3c 3f95 533d
00000160: 8876 063d ddb3 d0bb 8e47 9e3c 9141 64bd
00000170: 4da8 4cbd 40ec ed3c f2ee bebc 9b05 c63c
00000180: fd42 2bbd 8fda fbbc 66f5 4abd 1a7c ed3c
00000190: 3187 83bc a60f 123d 3cef 9a3c b27e 993c
000001a0: 0c50 93b9 73e6 8bbc 5933 3fbc 5c92 c53b
000001b0: c278 d23c 172b 3abd 8c75 553d c838 56bb
000001c0: 7301 2abd f3e3 d1bc 7310 4e3d bd88 543d
000001d0: 3cd9 52bd ff41 263d 823b dd3c 7b13 e43c
000001e0: b757 273d 92d3 0fbd 4760 083c 48bb ae3c
000001f0: 33fa 91bc 4509 993c 7e6f 93bc f504 033d
00000200: 7928 7cbc ff2b acbc a0a6 353d 8cff 0b3d
00000210: fe24 3ebc 7f0d 503c aa64 0a3d 9881 d2b9
00000220: 0ab5 a63c a71a debb 89fd ad3c 0f67 22bd
00000230: f8b3 0abd e8ac eebc 6718 4c3d 56ed 5abc
00000240: 6d6c e63b 4790 fabc 9048 583d 267c 4c3d
00000250: ae10 2fbd d33d 3bbd 690f 2cbd 0da4 8239
00000260: 69e3 4cbc 29b5 0fbd 37f2 ddbc cbdc 303c
00000270: af61 ffbc c2ec 293c 921d 53bc b9bc debc
00000280: ea9e b23b 9b93 343d 97c5 22bd 9d3a 19ba
00000290: f1fa abbc 6d77 553d 22ec 60bd 194b 65bd
000002a0: e416 4b3d 3eec 11bd 5667 223c bbd0 b5bb
000002b0: 898a 63bc 8c5b 1bbc 43bf 323d ffcc 3f3c
000002c0: 0930 4cbd 0a0a 74bd 6cd3 88bc 7035 183d
000002d0: c582 0bbd e9b6 603d 342f 1cbc 5aa2 21bc
000002e0: ca45 353d d4be de3c e851 3d3d 2b23 0d3d
000002f0: 3a74 c8bc 6253 3bbd c3f9 afbb bd11 3f3d
00000300: 283e dfbc 23d7 6abd 25d4 ee3c 2dcb 5d3d
00000310: a37b 80bc 68e3 44bd 9fbd 5abd 496a 653c
00000320: b7be ffbb b40f 01bd 8572 ea3b 057a 7d3c
00000330: 0406 323d efb7 2f3d 7892 d7bb 45f6 4abd
00000340: 1edc 44bd 808c 563d 98db a23c cc8a b43c
00000350: 0201 4fbd d5dc 403d 7fc4 543d a438 513d
00000360: 6efb 3fbd dca2 cfbc 862d 1abd 65e4 573d
00000370: d069 cdbc bd4d e0bc 4481 c93c 3103 ccbc
00000380: 5761 96bc de51 d0bb e400 e2bb d487 3ebd
00000390: 90aa 343d 9182 cbbc 6191 b93c 1554 4f3d
000003a0: bdb8 fc3c 573b 2b3c 63bd 443d 5046 e83b
000003b0: bdc1 e3bc 7f4f 5c3d 4a26 1d3c 2f2b 7bbd
000003c0: 14fd 81bc 34c3 1cbd 6fed 533d c27e 1ebc
000003d0: 45a4 50bd fd4a 62bb c756 073d 29ee 723c
000003e0: b771 803c 64c3 993b 613c 5f3c b7cb 74bc
000003f0: 5453 e4bc c33e 5bbd 79c0 2ebd aa0a c43c
0.015874159 0.053228024 0.026023282 0.029817993 -0.020337664 0.026726106 0.008304588 -0.011277735
-0.031770732 -0.030800482 -0.045448616 0.035560977 0.03759145 -0.008924119 -0.03279668 0.029363012
0.02479782 -0.008862041 -0.039675273 0.05128391 0.023463674 -0.042689208 0.05509949 0.045616344
-0.019663576 0.02919586 -0.036430515 -0.013796079 0.039704066 0.0011644169 -0.04201766 -0.021402191
-0.018824503 -0.01124292 0.0048953784 0.058104567 0.009371241 -0.024288215 0.013399994 0.029466199
0.024955943 -0.053172983 -0.013397266 -0.042148165 -0.024244657 0.016268367 -0.04189571 0.02402992
0.04482857 0.011918897 -0.03734126 -0.02027364 0.014427422 -0.04290111 0.027879005 -0.05334838
-0.05582596 -0.05654536 -0.013948742 0.037145037 -0.04913377 0.046750933 -0.019278215 0.016432885
0.0030477212 -0.04683002 0.0489999 0.034720264 0.055966884 0.028966116 -0.031280205 0.052632313
0.011410042 0.032789033 -0.043947197 -0.020750174 -0.060860883 -0.03174189 0.007278899 -0.045617916
0.009790954 0.023233574 0.005907226 -0.048752446 -0.04204284 -0.01653117 0.022725578 0.051656004
0.032827884 -0.0063690976 0.01932123 -0.05572659 -0.04996519 0.029043317 -0.023307297 0.024172595
-0.041811932 -0.030743865 -0.049550436 0.02898984 -0.016055675 0.035659455 0.018912904 0.01873717
-0.00028097664 -0.01707766 -0.011669957 0.0060294103 0.025692347 -0.04545125 0.052114055 -0.0032687653
-0.04150529 -0.02562139 0.050308656 0.051888216 -0.051476702 0.040590283 0.027005915 0.02784132
0.040855136 -0.03511388 0.008323736 0.021329537 -0.0178195 0.018681178 -0.0179975 0.03198715
-0.015390509 -0.021017073 0.04434836 0.034179255 -0.011605499 0.01269853 0.033787407 -0.00040150876
0.020349998 -0.0067780796 0.021239059 -0.039649066 -0.033863038 -0.029135182 0.04982796 -0.013362249
0.0070319683 -0.030586375 0.052803576 0.049923085 -0.042740516 -0.045713257 -0.042006884 0.0002491776
-0.012505391 -0.035084877 -0.027093036 0.010794829 -0.031174509 0.010371389 -0.012885468 -0.0271896
0.005451073 0.04408608 -0.039739218 -0.0005845221 -0.020993682 0.052115846 -0.054912694 -0.05597982
0.049582377 -0.03562569 0.0099123325 -0.0055485643 -0.01388801 -0.009482276 0.043639433 0.01170659
-0.049850497 -0.059579886 -0.016702376 0.037160337 -0.03406026 0.054861937 -0.0095327385 -0.009865368
0.04425601 0.027190603 0.04622069 0.034457367 -0.024469484 -0.045733817 -0.00537035 0.046647776
-0.027251318 -0.057334077 0.029153893 0.05414884 -0.015683955 -0.048068434 -0.053403493 0.014002391
-0.0078047174 -0.031509116 0.007154765 0.015470986 0.04346277 0.042900022 -0.0065787397 -0.049551267
-0.048061483 0.052380085 0.019880101 0.02203884 -0.05053807 0.0470856 0.051945206 0.051079407
-0.04687064 -0.025346212 -0.03764107 0.05270805 -0.02507487 -0.027380819 0.024597771 -0.024903866
-0.018356962 -0.0063574156 -0.006897079 -0.046516255 0.044107974 -0.024842532 0.02265233 0.050617296
0.030849809 0.010451159 0.048032176 0.00708846 -0.027802343 0.05378675 0.009591648 -0.06132048
-0.015867747 -0.038272098 0.051740106 -0.009673776 -0.05093791 -0.003452956 0.03304174 0.01482729
0.015679223 0.004692482 0.013625235 -0.0149411475 -0.027871765 -0.05352665 -0.042664025 0.023930866

body.0.net.0.bias f4 [64]
00000000: ac7d ceba 68cb 3abd c125 aabc 4dda 5abd
00000010: d0c5 a5ba 274e 67bd a1a3 953c f60e 413d
00000020: 4b14 2dbd eb76 2bbd b6e4 0a3d d28b e33c
00000030: ffba 28bc b0ad 613c cee6 f7bb cacf 243d
00000040: d37e 21bd 3695 03bc f7e3 bf3c 1354 35bc
00000050: 2bbc 6c3d 607f 173d dcda 0dbd 7715 fd3c
00000060: a9a0 1bbd 51b3 093b 55a1 75bd ab7b c63b
00000070: 56f0 933c bf25 193d 880d d1bb dd54 1ebd
00000080: 76e5 bfbc 730a 153d 3a86 29bc a459 3c3d
00000090: 6239 4c3c 4770 4abd 2a84 3a3d d234 25bd
000000a0: 7d72 063d faf5 aabb d020 9abc 6014 0c3d
000000b0: a27f 5d39 caec 73bd ebc9 593d 8e68 7f3d
000000c0: cd07 55bd 5b9c 7b3c d678 e0bb 271b e7bc
000000d0: 2ab8 a9bb f6e8 5fbd 97a1 1abd a224 0d3d
000000e0: 0677 96bc 3b9f df39 41b3 173c 6c7c 1a3d
000000f0: c0d6 e3bc 3913 eebb e425 01bd 498f b53c
-0.0015754006 -0.04560414 -0.020769956 -0.053430844 -0.0012647454 -0.056471016 0.0182665 0.04713341
-0.04225568 -0.041861456 0.033909522 0.027776632 -0.01029849 0.0137743205 -0.007565356 0.040237226
-0.03942759 -0.00803118 0.023424132 -0.011067408 0.05779664 0.03698671 -0.03463255 0.030894024
-0.037995014 0.0021011422 -0.05996831 0.006057223 0.018058937 0.037389513 -0.006379787 -0.03865515
-0.023424845 0.03638692 -0.0103469435 0.045983925 0.012464853 -0.049423482 0.045536198 -0.040333577
0.03282403 -0.005217311 -0.018814474 0.03419912 0.0002112375 -0.05955199 0.05317108 0.06235557
-0.052009393 0.015357102 -0.0068503423 -0.02821119 -0.005179425 -0.05466553 -0.03775176 0.034458764
-0.018367302 0.0004265251 0.009259046 0.037716314 -0.027812362 -0.007265475 -0.031530276 0.02216305

body.0.net.1.weight f4 [64]
00000000: 21fb 7f3f 711c 803f adac 803f 93f3 803f
00000010: d13a 7f3f 880c 813f 1a8e 7d3f 564a 7c3f
00000020: d9b4 7f3f 88d2 7d3f 04dd 7c3f 1bda 7f3f
00000030: 8d94 803f cbf8 7e3f 079d 803f 2195 7f3f
00000040: 0cf9 7f3f d696 7d3f 9787 803f 0676 803f
00000050: 09fe 7f3f 2a6f 813f c4a4 7d3f a667 813f
00000060: 2f94 7a3f 88db 803f cf29 7e3f 0b17 7e3f
00000070: dd7d 7e3f a714 803f f82c 7e3f 1792 7f3f
00000080: 013b 7d3f 0b72 803f 27ec 7e3f 641a 7e3f
00000090: 8a1d 803f 1111 7f3f 2587 833f 8388 803f
000000a0: 63fc 7d3f c26f 7e3f c240 7f3f 5c18 803f
000000b0: b5fc 7e3f 9496 7e3f 3bff 7d3f 8b3d 7f3f
000000c0: cb44 7d3f 19a0 7e3f f2fd 7e3f 7bd1 803f
000000d0: bdb2 813f b8c7 803f 3b47 7f3f a123 7b3f
000000e0: a0b0 7d3f 18c3 7c3f 74e8 813f 1531 7c3f
000000f0: 2f5e 813f 6e75 803f 8422 813f a4a0 7f3f
0.9999257 1.000868 1.0052696 1.0074333 0.9969912 1.0081949 0.99044955 0.9855093
0.99885327 0.9914937 0.98774743 0.9994218 1.0045334 0.9959838 1.0047921 0.9983693
0.9998939 0.9905828 1.0041379 1.0036018 0.99997 1.011205 0.9907954 1.0109756
0.9788236 1.0066996 0.99282545 0.9925391 0.994108 1.0006303 0.99287367 0.9983229
0.9891816 1.0034803 0.9957909 0.9925902 1.0009015 0.99635416 1.0275618 1.004166
0.99213237 0.9938928 0.9970819 1.0007434 0.9960435 0.99448514 0.99217576 0.9970328
0.98933095 0.9946304 0.9960624 1.0063928 1.0132672 1.0060949 0.99718064 0.9810124
0.99097633 0.9873519 1.0149064 0.98512393 1.0106868 1.0035837 1.0088658 0.99854493

body.0.net.1.bias f4 [64]
00000000: 2738 8cbb 0dc2 643c ca20 873c 7ee5 c33b
00000010: c318 523c 436c 133b 486e c03b 1d65 fabb
00000020: 4a74 dbbb 17f5 e93b 78bb febb 049b fd3a
00000030: 5403 3a39 4256 383c 2cd8 123c 10ee 693c
00000040: 5bf7 c33b 56b5 b0bc 0017 acbb 02a7 053c
00000050: 1836 42ba c588 693c f4c1 0d3c f80a c53c
00000060: 2e48 b3bb 1a41 4a3c aeea 97ba fdde 3cba
00000070: 8f6d 473b f724 463b 0fc2 343c 3139 e8ba
00000080: 4dae c0ba d5c2 843c a61c e73a 4cb9 423c
00000090: f610 edba 7906 2cbb 43b0 053d 1d5e 333c
000000a0: 4048 e3bb d717 093c a05b 683c 3efe a53a
000000b0: cc0c af3b 69ca 0fbc 39e8 9cbb 8d80 973a
000000c0: 1387 9ebb 7a0e a0bb fddb f63c e18e e23c
000000d0: e7a2 183b a1ef a43a 43b1 843b 41fc 6838
000000e0: 5667 86bc e662 bcbb edad 093d 9b49 b43b
000000f0: c993 3bbc 928f 853c 0f82 773c d021 323c
-0.004279155 0.013962281 0.016495127 0.0059782853 0.0128232865 0.002249495 0.0058725215 -0.007641448
-0.0066972123 0.0071398127 -0.007773813 0.0019348566 0.00017739582 0.011251034 0.008962672 0.01427795
0.005980415 -0.021570843 -0.0052517653 0.008157494 -0.00074085733 0.0142538 0.008652199 0.024053082
-0.005471251 0.012344623 -0.0011590326 -0.00072048587 0.0030430292 0.0030234435 0.011032595 -0.001771724
-0.0014700383 0.016206184 0.0017632439 0.0118849985 -0.001808672 -0.0026248975 0.0326388 0.010947731
-0.006936103 0.0083675 0.014182001 0.0012664271 0.0053421017 -0.008776286 -0.0047884253 0.0011558697
-0.0048378794 -0.0048845382 0.030134195 0.02765602 0.0023290457 0.0012583622 0.0040494516 5.554804e-05
-0.016406696 -0.0057490943 0.033613134 0.0055019385 -0.011448809 0.016303811 0.015106692 0.010872319

body.0.net.1.running_mean f4 [64]
00000000: 13f6 133e abb0 05bd e7db 8dbe d4db cebe
00000010: 3beb 17be 3718 dfbe 6cc3 3b3e b54c 25bf
00000020: a7bd 12bd 75d6 aabd 6730 eb3e 378b cfbe
00000030: 8f00 dd3e 064a ed3d 75b6 c73d a3d8 273f
00000040: a103 3d3e 144f 223e f9c0 7ebe d4ad 573e
00000050: 7dbb 25be 17ec 8b3d e21f 14be 827f 70be
00000060: cc0d 88be 6820 ba3e b677 fabe f3eb d93e
00000070: 656a 573e 5eec 5bbe 0e06 18be e37a c73e
00000080: 6c92 9e3e 6f20 8b3e 9086 053d 8e37 a8be
00000090: e1a0 343e 8d77 1bbe f1b9 9dbd 70ea 1c3f
000000a0: c5ed f8bd 408e 84be 932b b3bd eac8 19be
000000b0: ed84 f43e 55e4 5fbe 125f 8b3e e302 4d3e
000000c0: d757 833e 11b0 22bf 0e83 623e 0a95 cd3e
000000d0: c93f 1abe 296c 483c 838a 92bb a695 7f3e
000000e0: ca7b 92bd 8f8c 803c bf7b 0dbe 81b6 a3bc
000000f0: f07a 22bf 026f d73e 6e27 203e 7e9d 913e
0.14449339 -0.032639187 -0.27706835 -0.4040209 -0.14835827 -0.43573162 0.18336266 -0.6457017
-0.035825398 -0.08341686 0.45935366 -0.405359 0.4316449 0.115863845 0.09751598 0.65564936
0.18458416 0.15850478 -0.248783 0.21062404 -0.16184802 0.0683214 -0.14465287 -0.2348614
-0.26573026 0.3635285 -0.48919457 0.42562827 0.2103668 -0.21476886 -0.1484606 0.38960943
0.30971086 0.27173182 0.032599032 -0.32854885 0.17639495 -0.15182324 -0.07701481 0.61295223
-0.12154726 -0.25889778 -0.087485455 -0.15018049 0.47757664 -0.21864446 0.2722097 0.20020632
0.25652954 -0.63549906 0.22120306 0.4015277 -0.15063395 0.012232819 -0.0044720783 0.2495943
-0.07152517 0.015692024 -0.13816737 -0.019984486 -0.6346884 0.4207688 0.15640041 0.2844047

body.0.net.1.running_var f4 [64]
00000000: 9f92 fd3f 8dbb 0c3e a1e1 5e3e 889f f140
00000010: 7101 3540 4103 993e f20c ba3f 7a3d 4040
00000020: bcd8 4d40 3867 1e3f defc 0340 3b88 9340
00000030: 41f1 b640 9995 803e 13e0 213f 1d06 cb41
00000040: 5557 773f 44f8 8d40 098c 6840 9054 4a3f
00000050: d7a6 6b3f 6fb7 983d a0b8 f540 2b37 c13d
00000060: 4e48 fd3f 9f57 8b3f 3664 2740 d7fa 9040
00000070: 2e64 5b3f 8846 9f3f 7e5b 5440 bc11 3341
00000080: 82e9 0e3f a439 b33f 7b49 e73e eabd 043f
00000090: c500 0a41 f3bc 9c3e dede 083e 0550 753f
000000a0: bb97 6f40 9d03 f03e 8ee5 343e 890a 8040
000000b0: 54a8 0c40 f279 7b40 6689 9240 d128 983e
000000c0: d925 2f40 3b3b 9440 1a50 283e 1f38 2e3e
000000d0: a91a a63d 1ba2 1b3f 1dae 373f 273e f740
000000e0: 9b7e f540 9d79 2240 7aec a53e 69b1 2640
000000f0: 170e db3d a6ba cd3f b6cb 243f 1bcc a53d
1.981037 0.1374342 0.21765758 7.550724 2.828213 0.29885295 1.45352 3.0037522
3.2163534 0.6187625 2.0623088 4.6103797 5.71695 0.25114134 0.63232535 25.377985
0.96617633 4.436556 3.633547 0.7903528 0.9205145 0.07456862 7.678787 0.094343506
1.9787691 1.0886115 2.6154914 4.53062 0.8569974 1.24434 3.3180842 11.19183
0.55825055 1.4001966 0.4517325 0.51852286 8.625188 0.30612907 0.13366267 0.95825225
3.743636 0.46877757 0.17665693 4.001286 2.197774 3.929318 4.5792723 0.2971864
2.736685 4.6322303 0.16436806 0.17013596 0.08110554 0.6079423 0.7175005 7.726337
7.671705 2.5386727 0.3240698 2.6045783 0.10696047 1.6072586 0.6437334 0.08095571

body.0.net.3.weight f4 [64, 64, 5]
00000000: f65c 513b b005 5f3d 6b7f d23a e97f 16bd
00000010: 50f2 043d 07d2 a73c eaac 28bb 67b5 f63a
00000020: a193 113d 16c8 02bc b4af 1e3a b904 0b3d
00000030: d289 043d 3278 203b b37c 093d bbde 093c
00000040: f128 98bc 1b98 3b3d 6ede 243d 840f f33c
00000050: c29b b63b bd7b b23c 9f8b 04bd d2cd d33c
00000060: 6c62 ad3c 405c 17bd fede 51bd 587d 1e3c
00000070: 7a4f 213d 1e09 21bd 070c d93c 5cb7 a3bc
00000080: 6c55 babc b734 333d bc0f 35bd bc0d 4f3d
00000090: 639a 243d f32f 1f3c 2c1d 98bc 5948 6abb
000000a0: 4fd7 483d 9c4b fdbc e0d7 783d 0067 d63c
000000b0: 1adb 12bd ba19 183d 9008 a23c 5270 bebb
000000c0: 3e92 22bd 8770 6a3d b754 07bd 1e25 e4bc
000000d0: dbad af3b f7d3 7fbb 26d1 08bd 0637 273d
000000e0: 724c 19bc 5796 793c 481a 32bc 891f 67bc
000000f0: 91b1 39bd c85e 543d e671 bf3c 7c38 503d
00000100: 4525 29bd 70e1 173c 5e78 fbbc a2cc 1cbd
00000110: 463c f53b b383 b63c 8e24 673c a46e 31bd
00000120: 0b49 1fbd f5e3 5e3d ec90 aa3c e5fd 33bc
00000130: 5858 563d f936 f7bc 1afb 74bb 39ac 9d3c
00000140: 8c0a 4bbd f053 2f3d fb6d 333d 91c8 cebc
00000150: 5650 ffba 2544 a9ba 96e8 8c3c 4a9f 7ebc
00000160: 119c 2dbd 8718 763b 5855 ba3c ef53 b8bc
00000170: a91d 473d 4f91 2fba aa16 593d 00a0 fa39
00000180: e7f4 79bc 6771 c33b f3db 4a3d 5733 9b3c
00000190: d3ac 4e3d 26dc 2a3d b401 28bd fb7f 183d
000001a0: afd0 b9bc 4405 1a3c 133f 2cbd fb2e ba3c
000001b0: af81 f6bb 2e8c 443d 153a 5c3d 5fb7 1c3c
000001c0: 3aff 32bd 58a0 2dbc 6357 1d3a e396 1fbc
000001d0: 4bdc 3d3c 825b 67bd 8bb1 263d d5e0 fdbc
000001e0: 73b9 f1bc 49ca 9c3c e652 143d c4c7 973c
000001f0: c9c1 34bd 07d3 763d 702d ef3c 109e 433d
00000200: d19c 29bd 3b5d 0bbd d270 25bd 9b6d 333d
00000210: 5b9f 30bd 6477 2c3d 6983 0abc 4173 923c
00000220: f7fc 783a b5e3 45bd a2b7 3b3d ba69 63bd
00000230: a071 29bc 0610 4c3d d6e2 d4bc 14d7 adbc
00000240: a44f 87bc a661 343d 2624 8dbc 41f8 1abc
00000250: 8c89 243d 5908 49bd 49a2 edbb 7049 e03c
00000260: 4789 9fbc 5d55 2a3d e5e9 a63b b6be e03c
00000270: 0afa 85ba e7bf 013d ec44 edbb 78de 15bc
00000280: ff21 d6bc 026b 8a3c db50 3a3d ded9 3a3d
00000290: cced 5a3d 489b 443c be86 7b3c f602 8b3b
000002a0: d44a 44bd 0ecb a7bc a82a 2f3d 7b35 af3c
000002b0: 9294 353d cdcd ca3c ea5e 983c c618 aa3a
000002c0: 37a2 0fbd b7a8 8b3c 2dd3 1cbc 1862 ebbc
000002d0: f7d9 9abc a33a 2e3d cdb4 b7bc 8608 6fbc
000002e0: f211 6bbb bc8a 2dbd 0604 263c 1faf 8fbc
000002f0: 8386 c5bc 9364 36bd 44e1 fa3c 0fb6 4c3d
00000300: d479 4a3d 6785 463d 95c9 873b 3806 acbc
00000310: 5c66 45bb 098e a63c be63 e0bc 737f 6dbd
00000320: 1209 adbc ed45 323d deb4 5c3c ace4 003d
00000330: 979c 083d e863 bb3a 9d7a 6c3c 0ece a4bc
00000340: 0181 9dbc 0dce 86bc 8cab f4bc 6733 3ebc
00000350: a06e 20bc 4bcd 20bc 89ea 17bd 010c e6bb
00000360: 9d7b 413d 3015 8a3a da99 52bc 21c2 453c
00000370: 4613 2f3d 1ef2 603d 0b5c 5e3d f68a f9bc
00000380: 1b1d 9f3c 05c6 c5bb ad0c 0e39 dc7e 113b
00000390: 7f60 7dbc 65b1 bbbc 83b7 ebbb fcb3 9abc
000003a0: 0089 08ba 526d a23c 43ac 8abc dfc7 313d
000003b0: 41ef 84bb 2d22 5f3d 8102 e03c e3ad 743c
000003c0: 7791 4bbb 9850 1dbc 5763 19bc bcd1 21bd
000003d0: 3932 af3c eb3a 853b 6ad6 cabc e746 5cbc
000003e0: a9c2 aabc 57f9 46bd 07da f1bc 9483 d0bc
000003f0: 851b 5a3d 7786 653d 8fe0 f13c 5dab 593d
0.0031946278 0.054448783 0.0016059702 -0.03674308 0.03245765 0.020485891 -0.002573783 0.0018822373
0.03554118 -0.0079822745 0.00060534035 0.03394005 0.032358 0.0024485704 0.033566188 0.0084149195
-0.01857421 0.045799356 0.040251188 0.029670484 0.005572767 0.021787519 -0.032359716 0.025854979
0.021165095 -0.03695321 -0.051238053 0.009673439 0.039382435 -0.039315335 0.026494993 -0.019984894
-0.02274581 0.043751445 -0.04420446 0.050550207 0.040186297 0.009716022 -0.018568598 -0.003574869
0.04903346 -0.030919842 0.06075275 0.026172161 -0.035853483 0.03713391 0.019779474 -0.0058117295
-0.03969025 0.05723622 -0.033039775 -0.02784973 0.0053613014 -0.0039036253 -0.033402584 0.04082396
-0.009356605 0.015233598 -0.010870524 -0.01410664 -0.045335356 0.051848203 0.02336974 0.050835118
-0.04129531 0.009270057 -0.030697044 -0.03828109 0.007483992 0.022279596 0.014107836 -0.043318406
-0.03888802 0.054416616 0.020821057 -0.010985826 0.052330345 -0.03017758 -0.0037381114 0.019247161
-0.049570605 0.04280466 0.043806057 -0.025242122 -0.0019478898 -0.0012913985 0.01720075 -0.015540907
-0.042385165 0.003755124 0.022745773 -0.02250096 0.04861227 -0.0006697373 0.05300013 0.00047802925
-0.015256143 0.0059644463 0.049526166 0.01894538 0.050457787 0.041713856 -0.04101725 0.037231427
-0.022682516 0.0094006695 -0.04205234 0.02272748 -0.0075227837 0.04798525 0.05376633 0.009565203
-0.043700434 -0.010597311 0.00060020963 -0.009740564 0.0115881665 -0.056483753 0.040696662 -0.030990997
-0.029507374 0.019139426 0.03621187 0.018527873 -0.04413012 0.060259845 0.029196471 0.047758162
-0.041409317 -0.03402446 -0.040390797 0.0438057 -0.043120723 0.042106047 -0.008454182 0.017877223
0.0009498144 -0.04831286 0.045829423 -0.05552075 -0.010342032 0.04981997 -0.02598707 -0.021220721
-0.016517468 0.044038437 -0.017229151 -0.009458602 0.040170237 -0.049080227 -0.007252012 0.027378768
-0.019474639 0.041585315 0.0050938004 0.027434688 -0.0010221612 0.031677153 -0.007240882 -0.009147279
-0.026139257 0.016896728 0.045487266 0.04561793 0.053449437 0.011999913 0.015351949 0.0042422963
-0.047922924 -0.020482566 0.04276529 0.021387806 0.04433114 0.024756337 0.018599946 0.0012977354
-0.03506681 0.017048223 -0.009571833 -0.028733298 -0.018902762 0.04253639 -0.02242508 -0.0145894345
-0.003586885 -0.042368636 0.010132795 -0.017539559 -0.024111992 -0.04452951 0.030624993 0.049978312
0.04943259 0.048467066 0.0041439035 -0.02099906 -0.0030120825 0.0203314 -0.02739131 -0.057982873
-0.02112249 0.043523718 0.0134708565 0.03146808 0.03335246 0.0014296742 0.01443353 -0.020117786
-0.019226553 -0.016455675 -0.029866956 -0.011608935 -0.009792 -0.009814571 -0.037088905 -0.007020474
0.047237027 0.0010534879 -0.012854064 0.01207021 0.04274299 0.0549184 0.054286998 -0.03046177
0.019423058 -0.0060355687 0.00013546897 0.0022200858 -0.015464901 -0.022911737 -0.007193507 -0.018884651
-0.0005208403 0.019827519 -0.016927844 0.043403503 -0.0040568416 0.054475952 0.027344944 0.014934036
-0.0031062046 -0.009601735 -0.009362063 -0.03950666 0.021386253 0.0040658615 -0.024760444 -0.013444639
-0.020844774 -0.048577633 -0.029522909 -0.025453366 0.0532489 0.05603644 0.029526023 0.05314194

body.0.net.3.bias f4 [64]
00000000: 9dce 1c3d d597 83bc 8022 483d 8282 6ebd
00000010: d45b 103c 7e0d 833d 0992 473d c9e5 3fbd
00000020: b940 c33c be8b 553d c4fb 07bd 5297 ac3c
00000030: c775 31bd 687f 28bd d75b 57bd 3738 baba
00000040: 18f5 8f3c 5e38 2d3d 79a4 813d 6016 8e3c
00000050: 62e5 1d3d d93b f4bb 8ce0 0e3c 2d6c a23c
00000060: 6330 94bc 7b4f 523d 8501 bd3c 0d71 13bd
00000070: 4ff3 343d 7809 8b3c b738 07bd 1531 243d
00000080: b14c 5e3c 67c8 98bc f4fd d53b a38a e6bc
00000090: 2dab 51bd 4c8b d2bc a598 1a3d c060 143d
000000a0: 2b3b 06bd e2ce 6cbd 5768 43bd d215 85bd
000000b0: d254 9fbc 2266 503d ad04 053d a5ec 70bd
000000c0: 7fed ebbc 06df 26bd dbc9 113d b1ee 2bbd
000000d0: 156c 0a3d 5cde 08bd f4d3 4abb 2004 553d
000000e0: 1d0f 00bd 8f6e 51bd daff 63bb 37f8 943c
000000f0: 1aa8 363d 0388 61bc 66a8 253c 9c4e 03bd
0.03828298 -0.01606361 0.048861027 -0.05822993 0.008810956 0.06399058 0.048723254 -0.04685
0.023834573 0.05213522 -0.033199087 0.021068249 -0.04332521 -0.04113713 -0.05257782 -0.0014207427
0.017572924 0.042290084 0.06330199 0.017344654 0.038548835 -0.0074534235 0.008720528 0.019826973
-0.018089479 0.05134533 0.023072014 -0.035996486 0.04417735 0.016972288 -0.033013072 0.04008587
0.013568089 -0.018650247 0.0065305177 -0.028142279 -0.051188637 -0.025701188 0.03774323 0.03622508
-0.03277127 -0.057814486 -0.047706928 -0.064983025 -0.019449625 0.05087865 0.032475162 -0.05881943
-0.02879977 -0.040740035 0.035592895 -0.04197568 0.03379448 -0.033415183 -0.0030949088 0.052005887
-0.031264413 -0.051130828 -0.003478995 0.018184764 0.044593908 -0.013765338 0.01011095 -0.03205739

body.0.net.4.weight f4 [64]
00000000: 028e 7f3f 821f 833f aee2 7d3f 6f7a 803f
00000010: 8d08 7e3f 3a24 803f 11bf 7d3f 0a91 803f
00000020: 8bde 7a3f 7459 7f3f 9440 813f 5ede 833f
00000030: 06b6 7c3f 9857 803f 4835 803f 5265 7c3f
00000040: cd15 7d3f b6e3 7b3f 6d5d 803f e1e5 813f
00000050: 3094 7c3f 9717 803f e706 803f e495 803f
00000060: 4527 7f3f f46d 7f3f 0d93 7d3f 5000 7f3f
00000070: db20 813f fb44 803f ec66 813f f194 813f
00000080: 538e 813f 15af 7c3f 511f 813f 62b3 803f
00000090: c713 7e3f 4d83 7c3f 8e33 833f d92d 7f3f
000000a0: e0fb 7e3f 7470 813f 8b97 803f c2bb 803f
000000b0: 3bb6 803f 806b 813f 06fb 7f3f 98db 7f3f
000000c0: 2f89 7c3f 0c1b 803f 8c1a 7e3f c712 813f
000000d0: c755 803f 2b3c 7d3f c41d 7b3f 5607 7e3f
000000e0: 11f5 7d3f 9436 7e3f 76cd 7d3f d0e1 813f
000000f0: 5044 823f ca06 803f e76d 803f a26d 803f
0.9982606 1.024399 0.9917401 1.0037364 0.992318 1.0011055 0.9911967 1.0044262
0.97995824 0.9974587 1.0097833 1.0302236 0.98715246 1.0026731 1.001626 0.985921
0.9886139 0.98394334 1.0028511 1.0148278 0.98663616 1.0007199 1.0002106 1.0045743
0.99669296 0.9977715 0.99052507 0.9960985 1.0088152 1.0021051 1.0109534 1.0123578
1.0121559 0.98704654 1.0087682 1.0054743 0.9924893 0.9863785 1.0250108 0.9967933
0.9960308 1.0112443 1.0046247 1.0057299 1.0055612 1.0110931 0.99992406 0.9994445
0.98646826 1.0008254 0.9925926 1.0083855 1.0026177 0.98919934 0.98092294 0.99229944
0.99202067 0.9930203 0.99141634 1.0147038 1.0177097 1.0002072 1.003354 1.0033457

body.0.net.4.bias f4 [64]
00000000: e61b 8b3b 7e2e 433c c112 9f3b c42d 2a3c
00000010: a470 3fbb 83ca fd3a c377 d6bb a19a a0bb
00000020: 1252 bcba b8b0 32bb 9c7e f8bb bdde 723c
00000030: e24c e63b eb62 05bc 406b ba3b 0b44 3fbc
00000040: c133 2dbc 9411 46bc 7c62 a33c 0262 14bc
00000050: a756 083c 9e5c 85bb 7073 2a3b f9d0 1b3c
00000060: 7815 ffba 34f1 053c 72dc 3abc 1b79 5ebc
00000070: b15a f5bc 602a b1bc ca2f 313c b90e ecbb
00000080: f25c 78bc 1bca 96bb 9499 9bba b049 fd3b
00000090: e537 70bc a2fd 1fbc d1f9 9d3c 3c1d d4bb
000000a0: 8c6d d93b f689 193a 31e0 903b 9d6c c9bc
000000b0: d26d 893b 6785 003c a5a1 d1bb b0c8 f8b9
000000c0: dada c4bb f4e0 ce3b 5e2f cabb fae2 a4ba
000000d0: 4783 60bb 8ef5 e13b c840 3abc 7af3 fbba
000000e0: ad15 1cbb 5180 82bb 3e24 1e3b 0b6f 3a3c
000000f0: f8a7 ac3c d651 85bb f053 033c 4fc2 43ba
0.004245269 0.01191294 0.0048545306 0.010386888 -0.0029211426 0.0019362721 -0.0065450384 -0.0049012457
-0.001436772 -0.0027265977 -0.0075834524 0.014823613 0.007028208 -0.00814126 0.0056890547 -0.011673938
-0.010571421 -0.012089152 0.019944422 -0.00905657 0.008321441 -0.0040698787 0.0026008748 0.009510272
-0.0019461354 0.008175183 -0.011405097 -0.0135786785 -0.029950472 -0.021626651 0.010814616 -0.0072039035
-0.015158879 -0.0046017296 -0.0011871331 0.0077297315 -0.014661764 -0.009765061 0.01928416 -0.0064732116
0.0066353735 0.00058570446 0.004421257 -0.024587924 0.004194 0.007844306 -0.0063974434 -0.0004745177
-0.0060075345 0.0063134376 -0.0061701974 -0.0012579851 -0.0034257935 0.0068957275 -0.011367984 -0.0019222342
-0.002381663 -0.0039825817 0.0024130489 0.011379014 0.021076187 -0.0040685935 0.008015618 -0.0007467614

body.0.net.4.running_mean f4 [64]
00000000: 4ffd ff3e ce90 30be aeeb 5dbe 7049 48bf
00000010: 5f97 563d 35f7 923e 8c09 b6be dcec 223f
00000020: a11b ad3e c6e0 933f ba27 93bc 040c 11bd
00000030: 6c65 843d 06d3 debe 534f 333e 60c3 023e
00000040: 2d48 fbbd 0a03 113f 701e 9f3d 6b04 3e3c
00000050: b175 c4be 385b a83e 7e64 8c3e 8c2e a5bc
00000060: a360 b93e f264 46bf ec56 26bf 35a6 9e3d
00000070: f6d3 40be 8ff5 c63e 1745 f2be 8147 3dbe
00000080: c21a cebe 0bac 3d3f d88c bb3c e0bc 8a3e
00000090: bf2d f0bd 8ca6 ad3e 9e86 0b3d 6a2a eebe
000000a0: 770a 703f 6f43 2fbd d50e 00bf e52e 71be
000000b0: 25fc 1cbd cd26 2a3f 2474 4d3e 513c e63e
000000c0: 213c 243e 432f 46bf 5f3b 1ebe e7e3 9fbe
000000d0: 779b 8cbd 67c0 91be 2742 4cbf 7dc6 54bf
000000e0: ad95 6ebf ac94 be3e 8fc3 3e3e cace 453e
000000f0: 78dc 1d3e 4768 70be cae4 d1be 3f90 dcbe
0.49997947 -0.17242739 -0.21671936 -0.78237057 0.052390452 0.2870423 -0.3555416 0.6364267
0.33810142 1.155297 -0.017963279 -0.03541185 0.06464657 -0.43520373 0.17510729 0.12769842
-0.12269626 0.5664526 0.07769477 0.011597733 -0.3837104 0.32882094 0.2742042 -0.020163797
0.3620654 -0.7749778 -0.6497638 0.07746545 -0.18830857 0.3885922 -0.47318336 -0.18484308
-0.4025479 0.7409064 0.022894308 0.27097225 -0.117274754 0.33916128 0.034063928 -0.46516734
0.9376597 -0.04278892 -0.5002263 -0.23553045 -0.0383264 0.66465455 0.20063835 0.44967893
0.16038562 -0.77415866 -0.15452336 -0.31228563 -0.0686559 -0.28467104 -0.7978844 -0.8311537
-0.9319714 0.37222803 0.18629287 0.19317165 0.15416133 -0.23477279 -0.40994865 -0.430788

body.0.net.4.running_var f4 [64]
00000000: e3ee 2b3f 77c7 5e3d 279c 493f 7123 a43e
00000010: 56af ef3e cbd7 653e 3620 483f 4a73 b83e
00000020: 82e4 1a3e 364b 2b3f 6881 8b3e 4ea7 df3d
00000030: 8866 1f3f c6cd 393e e135 e13e 1615 953e
00000040: 90e2 7e3e 7bbf 713e 6238 933e d7f0 3e3d
00000050: 9077 3b3f 7797 903e 4605 013f f7ff d53e
00000060: e221 893f 18dc ba3f 2d28 503f 8717 743e
00000070: b0b3 fc3d 6eb4 4b3f 74e6 3c3e ad5c 843d
00000080: 3ea4 bd3e 66c9 963f 75cf 7b3d 3d89 d83e
00000090: a591 923e f593 2b3f b6e5 063e 2058 213e
000000a0: 5500 013f 35d7 6b3e bfd9 6e3e e75e 6c3d
000000b0: dcf6 643e 1d0a 5b3f a4ba 043f ccbb 143f
000000c0: 49a9 7f3e e79b 583f 8fb5 073f dea3 b43d
000000d0: 0bb8 4f3f abeb b13e faae 843f aca4 013f
000000e0: 1d4d ff3e 9595 103f 09ec 863e 5292 823e
000000f0: eb82 143e 99ba b43d c3dc 223f 1614 403f
0.6716139 0.054389443 0.78753895 0.3205829 0.46813458 0.224456 0.7817415 0.3602546
0.15126231 0.6691164 0.27247167 0.10920583 0.62265825 0.18144903 0.4398642 0.2911765
0.24891114 0.236082 0.28753954 0.0466164 0.7322931 0.28240559 0.5039867 0.41796848
1.0713465 1.4598417 0.81311303 0.238371 0.1233896 0.7957219 0.18447286 0.06462989
0.3703937 1.1780212 0.061477143 0.42292204 0.28626743 0.6702264 0.13173565 0.15756273
0.5039113 0.23031314 0.23325251 0.057707693 0.22359794 0.85562307 0.5184729 0.58099055
0.24966921 0.8461289 0.5301141 0.08820318 0.811402 0.34750113 1.0365899 0.50641894
0.4986352 0.56478244 0.26351956 0.2550226 0.14503066 0.08824653 0.63618106 0.7503065

body.1.net.0.weight f4 [64, 64, 5]
00000000: 8a3c 513c 978c ccbc e373 d5bc 46c8 76bc
00000010: b3a0 26bd 9235 9f3d 9db5 563c 142e 1b39
00000020: 0e96 963c c8d0 933b b4ea eb3c 8f2e 0dbd
00000030: f122 1bbd ce76 fe3b 3e48 09bc 3420 863c
00000040: 458c 64bc 74e4 113d edba cabc 2f94 0bbd
00000050: e7e7 5f3c a29d c3bb 28e9 30bd 5714 a33a
00000060: a0b9 09bd 62a6 f0bc e8e5 53bd 402b 013d
00000070: bd5e 3bbc c505 16bb a730 4ebd db54 b4bc
00000080: a26b 2cbd 59bb b6bc c4a1 31bd e469 7fbc
00000090: 4576 b5bc 844b f6bc a128 bebb ad1a e7bc
000000a0: 1f9f 2c3d f339 a3bc f5fc 083b 7ef2 85bc
000000b0: dc48 80bc 5caa 243d 5008 c63b d34a 04bd
000000c0: c358 0bbc 3d96 e13c 3305 31b9 36e5 563a
000000d0: 5450 50bc 2732 87bc a863 b3bc f475 a63c
000000e0: b90a 193c 5cd8 7d3c d6f2 103d 2b91 c03b
000000f0: 0d5f 8bbc 1fb3 6a3c ca9f 09bc 0e5a 173d
00000100: 3462 87bd 4ee5 903d 6416 2b3c 2d56 f53b
00000110: b50e 793c 7e45 a93c 30c7 083c d9c1 313d
00000120: a9e1 b03c 6e20 8ebc 824d 933b d1bc 053d
00000130: c281 27bd 078a 813d 5af1 053d 7111 6e3d
00000140: 76b9 3cbd 5686 fb3b 9904 383d d012 993c
00000150: 5abe 93bc 502a 64bd d6b1 813c c23c 183d
00000160: 4435 f83c 3f21 123c 14a5 96ba 33e7 b03b
00000170: ae2e d43c 3c8f ca3c 6f84 2bbd 22ff 743b
00000180: 4e5a aabc 4c67 493d 06d5 bc3c 767c 47bc
00000190: f4da 1dbd 4211 2d3d e2d3 8a3c 2482 a1bc
000001a0: b272 183d 4be7 babb 7a09 5abd 914b 633d
000001b0: 83ed 0d3d 9f7d 44bd 1ef7 90bb 77e4 ebbc
000001c0: 4551 673d 8b35 1ebc faf9 683d f46c 5abc
000001d0: 5af1 483d 7d3b f93c 1269 6e3d 241d 263d
000001e0: 53d1 61bd b361 a53c d4e7 a9bc fa0c 403d
000001f0: 9fdb 24bd 4361 58bd 1a93 c0bc a460 94bc
00000200: a99d bf3c ac37 76bc 3692 573c 597c 593d
00000210: 2509 133c 6bb0 343d 7a7c 1fbd cff8 3a3b
00000220: 8232 3fbd 4876 9a3c 4122 3c3d 0586 4ebd
00000230: bfe1 89bd c0a0 2abd dc2a b83b 4fc7 4cbd
00000240: 5961 23bd 0331 0bbd a2ae 39ba 6a27 c43b
00000250: 5f78 a93c f86d 873c 52ec 54bd 2a2d d7bc
00000260: d919 45bd d675 03bd cf08 61bd 0a5f d8bc
00000270: 9860 3f3d a698 4e3d 5f5d 32bd 5cd7 a43c
00000280: 0214 6abd 18da 5f3d a236 123d 4d98 31bc
00000290: 31d4 bfbc b915 9b3c 1b21 04bd 1b74 4b3d
000002a0: 4a29 813c 009f 893c 7949 aabd e946 7bbd
000002b0: 5c04 bbbc 2932 793c c152 f93c 9f27 553d
000002c0: f64b 593d be19 173c 1c69 a23c 6c4d b13c
000002d0: dc9e d13c d3be 1bbd e198 bb3c 9027 9f3c
000002e0: d7b5 9bbc f4c7 173c c6b2 a43c 33aa f4bc
000002f0: 4551 f4bb 5603 4f3c a28a 4f3d ed76 2a3d
00000300: 59cd 7dbc 1c7c 943d b5cb 5e3c 96f7 3abd
00000310: d215 89ba 57dd 063d 9415 62bd d536 8f3c
00000320: 501f 543d 8a95 26bb 2b1b 0d3d 0adf 14bd
00000330: 0b2c 663d 9677 e33c 125d 653d bf0b 793d
00000340: 7e67 afbb 999b 04bd 4ecc 7dbc a7de 8dbd
00000350: b1ed edbc d5ff ab3c dc4e 08bd 595e 1fbd
00000360: fb4d 10bd be82 c3bc cd97 b13c 1149 19bd
00000370: 0709 123c 938c b53b 6256 28bd ae8b 8abb
00000380: 535a 6c3d 145b ca3c a25e 1fbc 4bd9 d33c
00000390: 8830 393d e8f8 f4bb af25 5c3b c19a 133d
000003a0: 1929 6dbb 9503 cc3c 8633 22bb faaa 753b
000003b0: fd2b 45bd 0d02 2a3d b2ac 34bd f2be 073d
000003c0: 50c0 ac3c b179 7d3d 5b7b 18bd 0933 693d
000003d0: 9f70 6fbc 2cf0 5ebc 8ee7 1cbd 0970 40bd
000003e0: a290 27bd 5e2e 403d 40ba 653c a877 eabc
000003f0: 4098 58bd 61af 46bd 929f 49bd be1c a0ba
0.012770781 -0.024969382 -0.026056236 -0.015062397 -0.0406806 0.077738896 0.013104823 0.00014799117
0.018382099 0.0045109726 0.028798439 -0.03446823 -0.03787512 0.0077656275 -0.00837904 0.016372778
-0.0139494585 0.03561826 -0.024747336 -0.034076866 0.01366613 -0.005969719 -0.043191105 0.0012441975
-0.03362429 -0.029376213 -0.051732928 0.031535387 -0.011436162 -0.0022891623 -0.050339367 -0.022013118
-0.042094834 -0.022306131 -0.043367162 -0.015589211 -0.022151122 -0.030065306 -0.005803183 -0.028210962
0.042143937 -0.019925093 0.0020902727 -0.01635098 -0.015659742 0.04020153 0.0060434714 -0.03229792
-0.008505049 0.02753746 -0.00016881972 0.0008197607 -0.012714464 -0.016503407 -0.021898106 0.020319916
0.009340935 0.015493479 0.035387836 0.0058766804 -0.017013097 0.014324932 -0.008399913 0.036951117
-0.06610528 0.070749864 0.01044235 0.0074870796 0.01520126 0.02066302 0.008348271 0.04339776
0.021591978 -0.017349448 0.0044953236 0.032650772 -0.04089523 0.06325155 0.032700874 0.058122102
-0.046075307 0.007675926 0.04492626 0.018685728 -0.018035103 -0.055704415 0.01583187 0.03716732
0.030298837 0.008919059 -0.0011493289 0.005398655 0.025901165 0.024726503 -0.041874345 0.0037383516
-0.020795014 0.049170777 0.023050796 -0.01217567 -0.038538888 0.042252786 0.016946737 -0.019715376
0.037218757 -0.005703842 -0.053231694 0.055491988 0.034650337 -0.047971364 -0.00442399 -0.028795464
0.05647399 -0.00965632 0.05687902 -0.0133316405 0.049058296 0.030423874 0.05820567 0.040555134
-0.055131268 0.020188188 -0.020740427 0.046887375 -0.04024851 -0.05282713 -0.023507643 -0.018112488
0.023390608 -0.015027922 0.013157418 0.053097103 0.008974348 0.044113558 -0.03893707 0.002852965
-0.046679027 0.018855229 0.045931105 -0.05042078 -0.06732511 -0.04165721 0.0056203436 -0.049994763
-0.03988776 -0.033982288 -0.0007083212 0.005986144 0.02068728 0.01653193 -0.051983185 -0.026266653
-0.048120353 -0.0320948 -0.05494004 -0.026412506 0.04672298 0.050438546 -0.043546077 0.020122223
-0.057147987 0.05465135 0.035696633 -0.010839534 -0.02341661 0.018931257 -0.032258134 0.049671274
0.015766758 0.01679945 -0.08314795 -0.061346922 -0.022829227 0.015209713 0.030434968 0.05203974
0.053050958 0.009222446 0.01982551 0.021643363 0.025588445 -0.03802378 0.022900047 0.019428045
-0.019007606 0.009263981 0.020104777 -0.029866314 -0.007455977 0.012635073 0.05066932 0.041617323
-0.015490853 0.072502345 0.013598372 -0.045646273 -0.0010458773 0.03292593 -0.05519636 0.0174822
0.051787674 -0.0025418722 0.034449738 -0.03634552 0.056194346 0.027766984 0.055996962 0.060802218
-0.0053529134 -0.032374952 -0.015490605 -0.06927233 -0.029044004 0.020996014 -0.03327833 -0.038908336
-0.035230618 -0.023866054 0.02167883 -0.037423197 0.008913285 0.0055404394 -0.041098006 -0.004228077
0.057703327 0.024701633 -0.009727152 0.02586045 0.0452123 -0.007475961 0.0033591797 0.036036257
-0.0036187826 0.024904052 -0.0024749949 0.0037485943 -0.048137654 0.041505862 -0.044110008 0.033141084
0.021087795 0.061883632 -0.037227016 0.056933437 -0.014614253 -0.013607066 -0.038306765 -0.046981845
-0.040909417 0.04691922 0.014021456 -0.02862151 -0.052879572 -0.048507098 -0.049224444 -0.0012215597

body.1.net.0.bias f4 [64]
00000000: 7dba 693d e880 c33c 3f22 7b3d 9dc9 193d
00000010: 7d74 53bd ee24 1c3d a484 8d3c f2b4 723d
00000020: 0816 0a3c bc2d 05bd 6e1e 06bd e3c5 45bd
00000030: 119e fbbc 364f 0ebc 9b3e 46bd dcff 3bbd
00000040: cc91 573a d312 253d 2cf1 853d 47ec 9abc
00000050: 23c8 e7bc ce7d 5a3d e109 aa3c 2d47 14bd
00000060: eab8 003d 3a72 cdbc 723f feba d9a4 34bd
00000070: 8260 ad3c bd49 42bd 3468 b03c d107 9cbc
00000080: eb6f 8b3c a0b4 903c 7c26 38bc f88b 2a3d
00000090: b083 493d 47d7 3c3d 71db ee3b 149f 4c3d
000000a0: 67da b2bc d4ad b3bc f8e9 f8bc 92c7 cb3b
000000b0: 518b 86bb e872 15bd 95d9 a1bc 5a0f 4a3d
000000c0: cb06 0b3d bfd0 1dbd 58c3 573d c011 56bd
000000d0: dac0 2cbd 91a3 823c 9f98 1a3d 047b b1bc
000000e0: 8ca7 e33c c7fb 97bc 9fbd e83c 3d43 4dbb
000000f0: ba11 78bc 7050 0d3d 663d 29bc 7341 3a3d
0.057062615 0.023865178 0.061311956 0.03754579 -0.051624764 0.038121156 0.017275162 0.059254594
0.008428104 -0.03251432 -0.032743864 -0.048284423 -0.03071502 -0.008685878 -0.04839955 -0.045898303
0.00082233245 0.040301155 0.065401405 -0.018911494 -0.028293675 0.053342633 0.020756664 -0.03620069
0.031426348 -0.025078882 -0.001939757 -0.044102523 0.021164183 -0.047433604 0.021534063 -0.019046696
0.01702114 0.017664254 -0.011239644 0.04163739 0.049197853 0.046103742 0.007289343 0.049956396
-0.021832658 -0.021933474 -0.030385002 0.006218859 -0.0041059633 -0.036486536 -0.019757072 0.049331047
0.033942025 -0.038529154 0.05267653 -0.05226302 -0.042176105 0.015947135 0.037743207 -0.021665104
0.027789854 -0.018552674 0.02841073 -0.0031320595 -0.015140945 0.03450054 -0.01032958 0.045472573

body.1.net.1.weight f4 [64]
00000000: 57b8 7d3f c6fb 7f3f 93d9 803f 1ca1 7c3f
00000010: c068 7e3f bc95 7b3f ec7f 7d3f f11e 803f
00000020: ae82 833f 75c3 7a3f 365d 7b3f 026e 803f
00000030: 5d36 813f 3516 823f 42f1 803f ceca 7c3f
00000040: 3db7 823f 8fe2 7e3f 0ed0 813f 909d 783f
00000050: 6fb4 7f3f fef1 813f fcd0 823f d3a7 7e3f
00000060: 5572 7f3f 6051 7d3f 902c 7c3f 673e 7b3f
00000070: 8946 7f3f 81af 7b3f 0d64 7f3f a735 7d3f
00000080: a763 833f 9d95 7d3f 3e34 813f aa4a 7e3f
00000090: cc28 813f 71a0 7d3f e877 7f3f 3abf 7e3f
000000a0: 51e9 7a3f 33c0 7e3f af6b 7e3f 7eeb 773f
000000b0: 8025 7e3f 6453 7f3f 1e50 793f 5435 7e3f
000000c0: 5707 7e3f 662b 823f 6117 823f 71d8 7f3f
000000d0: 3f6f 813f 6dc6 7f3f b2fb 7b3f a029 803f
000000e0: 21bc 823f 5e46 803f 51b8 7e3f f732 803f
000000f0: 9ea8 7f3f f536 7b3f 082f 803f 5c3f 7c3f
0.99109405 0.9999355 1.0066398 0.98683333 0.99378586 0.9827535 0.9902332 1.0009443
1.0274255 0.97954494 0.98189104 1.0033572 1.0094715 1.0163027 1.0073626 0.98746955
1.021217 0.9956445 1.0141618 0.9711542 0.99884695 1.0151975 1.0220027 0.9947483
0.9978383 0.98952293 0.98505497 0.98142093 0.99717003 0.9831467 0.9976204 0.9890999
1.0264786 0.99056417 1.0094068 0.9933268 1.0090575 0.9907294 0.9979234 0.9951054
0.9801226 0.9951202 0.9938306 0.9684371 0.9927597 0.9973662 0.97387874 0.9930012
0.9922995 1.0169494 1.0163385 0.9993964 1.0112075 0.9991215 0.9843093 1.0012703
1.0213662 1.0021474 0.99499995 1.0015553 0.99866664 0.9813073 1.0014353 0.9853418

body.1.net.1.bias f4 [64]
00000000: c99f 2dbc 236f 813b 9310 a1bb cc6d ccbc
00000010: 056b 09bc da03 21bc cfdb 65bc 5085 1cbc
00000020: a4a5 d23b 256e 32bc 6a99 c0bc 9222 8b38
00000030: 94c7 45bb 255f 083c c19c c4bc f65c a4bc
00000040: 44a7 8f3c a158 97bc 6fd7 c03a 8729 07bd
00000050: afde e7bb 8a2e 663b a63b a73b 1e94 00bb
00000060: a04b 0abc 3051 5cbc 3f34 5fbc 3599 b2bc
00000070: 0ee9 adbc 3c36 94bc a1f2 23bc 15f8 30bc
00000080: af6b b63b cef6 23bc 606d 0f3c 3b30 41bc
00000090: 0b28 e2b9 4140 15bc cc0b b1bc 1c14 12bc
000000a0: 65fa 6dbc 31b0 14bc 7649 b03b 9067 6abd
000000b0: c256 02bc 75dd 0bbc e1b1 d8bc 3cb3 59bc
000000c0: 590c 13bc d433 6bba 07aa 44bc 8897 45bc
000000d0: 7aaf 68ba e2b6 76bb f68c 6cbc 76b5 6ebc
000000e0: 7c20 393c b029 a7bb 8669 443b 96f5 583a
000000f0: fbcd ddbb 9517 81bc fa72 df3b 1833 9dbc
-0.010597178 0.003950016 -0.004915306 -0.024954699 -0.008387332 -0.009827578 -0.014029457 -0.009553269
0.0064284373 -0.010890518 -0.023510654 6.634476e-05 -0.0030178772 0.0083234655 -0.024000527 -0.020063858
0.017535813 -0.018474879 0.0014712642 -0.032998588 -0.0070761065 0.0035122954 0.005103546 -0.0019619535
-0.008440882 -0.013447091 -0.013623296 -0.02180157 -0.021229293 -0.018092267 -0.010006578 -0.010801335
0.005567036 -0.010007573 0.008754104 -0.011791284 -0.00043135913 -0.009109558 -0.02161207 -0.008915927
-0.014525031 -0.00907521 0.005379851 -0.05722767 -0.007955255 -0.008536686 -0.026452007 -0.013287362
-0.008975112 -0.00089722616 -0.012003428 -0.012060054 -0.00088762457 -0.0037645628 -0.014437905 -0.014569631
0.011299249 -0.005101405 0.0029970123 0.0008276341 -0.0067689396 -0.015758315 0.006819126 -0.019189402

body.1.net.1.running_mean f4 [64]
00000000: 0a25 193e a72d 083f 341f ec3e a4cc 183e
00000010: 1cd0 a5be 9ceb 0e3e 32c1 42bf 37db b9bd
00000020: efa7 633e 467e dcbf e007 25bf 3b22 1fbc
00000030: 42a2 3d3f bba4 9ebe 91b7 0b3d 18a3 88be
00000040: e898 163e e227 1e3f f0f6 adbe e986 503e
00000050: 0834 4d3f e605 5bbe 094f 683d 1854 213f
00000060: a53f 36bf a47d eabe 0973 0abd 2a8c 2bbe
00000070: 0077 ad3e 89bb 61be 523b 2fbf a0c8 91bc
00000080: 0de3 083c 5157 bb3e 9b50 0c3e bae2 6b3c
00000090: 1e71 413f 07a9 fabe bce4 b73e b343 51bf
000000a0: d0d0 9c3f 55ce 24bf 176b 2cbf 0683 c9be
000000b0: b8d1 0b3f 378d 0a3f a443 e13e 4bdf a2bd
000000c0: dacf bfbf 00a9 0b3e c8e7 06bd d5ff 75bf
000000d0: 4b4b b23e 21b2 bd3e eb09 3abe 5b94 3b3f
000000e0: 2ba4 f0be 4f1e c8be 9b2c 4cbf a45b 7dbf
000000f0: 0fc9 0bbf 13c8 ff3e e60d 843f 10fe 023e
0.14955536 0.5319466 0.46117556 0.14921814 -0.32385337 0.13957065 -0.7607604 -0.09075015
0.2223203 -1.7226036 -0.6446514 -0.009712751 0.7407571 -0.30985054 0.03411061 -0.2668693
0.14706767 0.61779606 -0.3397746 0.20363964 0.8015752 -0.21388969 0.056716 0.6301894
-0.71190864 -0.4579898 -0.033801112 -0.16752687 0.33879852 -0.22044195 -0.6844989 -0.01779586
0.008354914 0.36590055 0.13702624 0.014397318 0.7556323 -0.48957083 0.35916698 -0.81743926
1.2251225 -0.6437734 -0.67350906 -0.39357775 0.5461688 0.54121727 0.43996918 -0.07952746
-1.4985306 0.13638687 -0.032935888 -0.96093494 0.3482307 0.37049964 -0.18167846 0.7327325
-0.4700025 -0.39085624 -0.7975556 -0.9896796 -0.54603666 0.49957332 1.0316741 0.1279223

body.1.net.1.running_var f4 [64]
00000000: 0814 cf3e f29a be3f 3e16 543f 3da1 433e
00000010: a4a3 c23e ddcd fb3f 804f f53e 3811 fb3e
00000020: dd57 873e baad 7e40 3415 3b3f 3944 b93e
00000030: 5552 d33e 1cf6 bb3e 463a 6a3e 1197 3d3f
00000040: 931f c03e 04d2 433f e2ea d33d 1619 2240
00000050: 664d e43e d388 903e 74b1 033e 590e d93f
00000060: 17b6 053f f1d7 733f 4d0d f73f 8e06 1040
00000070: 78c6 9f3e 9705 bc3f 57c0 273f 0bee 0c40
00000080: a8a9 2b3e 278e 9c3e f28f 833e f1cd e63f
00000090: 4aea e73e 6d1d 4d3e 2184 9a3e 755e 403e
000000a0: 0766 0140 1f6a a33e 36f8 0140 7ac2 4d3f
000000b0: 9849 1d3e b923 123f 1b5c 643f c69f be3e
000000c0: b378 6840 ec7e 293e cee9 873e b95a b13e
000000d0: eeb4 863e 4166 003f 36e4 093e da46 963e
000000e0: 2d0f f43e 3b36 4b3f 3dc8 a13e 19d8 9a3f
000000f0: e8c8 8f3f ff73 9e3f b42e 9a3f 6630 373f
0.4044497 1.4891036 0.8284644 0.19104476 0.38015473 1.96722 0.47912216 0.49036574
0.26434222 3.9793534 0.7307923 0.36184862 0.41273752 0.36711204 0.22873792 0.74058634
0.3752409 0.76492333 0.10347535 2.5327811 0.445903 0.2822939 0.12860662 1.6957504
0.5223097 0.95251375 1.9300934 2.2504 0.31206107 1.4689206 0.6552786 2.202029
0.16763937 0.30577204 0.2569576 1.8031598 0.45295936 0.20030756 0.3017893 0.18786032
2.0218523 0.319169 2.0307746 0.8037487 0.15360105 0.5708576 0.8920304 0.37231272
3.632367 0.16552323 0.26545566 0.34639528 0.26309913 0.5015603 0.13465962 0.2935093
0.47667828 0.79379624 0.31598082 1.2097198 1.1233187 1.2379149 1.2045503 0.71558225
